model/best_gnn_model.pth (torch, 983282 bytes, 14 tensors)

conv1.bias f4 [256]
0	0xb732c3b8	-1.0655196e-05
1	0x38370df8	4.364361e-05
2	0xb819c524	-3.6661644e-05
3	0x38bf904e	9.1344686e-05
4	0x388e77af	6.7933805e-05
5	0xb79b165e	-1.8487855e-05
6	0xb83c3e8e	-4.488095e-05
7	0xb82e98f8	-4.1627296e-05
8	0xb7931baf	-1.7536657e-05
9	0x369a8d81	4.606031e-06
10	0xb7cc7a57	-2.4375664e-05
11	0xb83b2a9a	-4.462395e-05
12	0x36d6f5e4	6.4063224e-06
13	0xb80b0f4a	-3.315442e-05
14	0x37ad1c8e	2.0636504e-05
15	0xb7aec0a9	-2.083213e-05
16	0x388dc0c0	6.7593064e-05
17	0xb8977607	-7.2222254e-05
18	0x3804ff7b	3.1709187e-05
19	0xb86d0432	-5.650911e-05
20	0xb654c096	-3.1702562e-06
21	0xb8a1bd21	-7.712306e-05
22	0x38d7262f	0.00010259111
23	0xb88ecd75	-6.809357e-05
24	0x36ef0b40	7.1240647e-06
25	0xb80de16d	-3.3826964e-05
26	0xb8195db7	-3.656532e-05
27	0xb6a3bc7f	-4.8797224e-06
28	0xb86ef901	-5.6975525e-05
29	0x384ea0c4	4.9263952e-05
30	0xb7116172	-8.665362e-06
31	0x3801f853	3.0987267e-05
32	0x381c9aa1	3.7337308e-05
33	0xb7779ce0	-1.4758873e-05
34	0x38314561	4.2264703e-05
35	0xb808e158	-3.2634794e-05
36	0xb82c39da	-4.1061874e-05
37	0xb7afda4f	-2.0963284e-05
38	0xb84f2a3b	-4.9391976e-05
39	0xb8469984	-4.734985e-05
40	0x362ba398	2.557621e-06
41	0xb8183058	-3.6284648e-05
42	0x37cd21f3	2.4453713e-05
43	0xb7eedd51	-2.847487e-05
44	0xb81c42dc	-3.7255566e-05
45	0x3875c09c	5.8591933e-05
46	0x3817dcda	3.620689e-05
47	0x37682f17	1.3839242e-05
48	0xb87f4b1f	-6.08667e-05
49	0xb81e33db	-3.771843e-05
50	0x36daa605	6.5162335e-06
51	0x382b990a	4.0912106e-05
52	0xb8111472	-3.4589735e-05
53	0xb7f34ca1	-2.900354e-05
54	0x3725d979	9.885401e-06
55	0xb80095cf	-3.06571e-05
56	0xb5fade06	-1.8691069e-06
57	0x3823d420	3.9059785e-05
58	0x3828ff04	4.0291823e-05
59	0xb875ec77	-5.8632777e-05
60	0xb8b02f3f	-8.401134e-05
61	0xb84632ac	-4.725407e-05
62	0xb83f0034	-4.5538138e-05
63	0xb7e53ccb	-2.7327236e-05
64	0x385f3506	5.3216725e-05
65	0xb8561098	-5.103703e-05
66	0xb745cf46	-1.1790375e-05
67	0xb8602867	-5.344339e-05
68	0xb81cb609	-3.736283e-05
69	0xb7ee5666	-2.8412043e-05
70	0xb7735d51	-1.4505656e-05
71	0xb823b318	-3.9029022e-05
72	0x377e5c69	1.5161096e-05
73	0x381ade58	3.6923535e-05
74	0xb89aea3c	-7.386922e-05
75	0x3857b237	5.142597e-05
76	0xb821b33c	-3.8552316e-05
77	0xb765a621	-1.3688144e-05
78	0xb8192462	-3.6511927e-05
79	0xb7bcec50	-2.2521388e-05
80	0xb79f37db	-1.8980287e-05
81	0xb828d114	-4.024904e-05
82	0xb7a788fd	-1.9971741e-05
83	0x3818e599	3.6453454e-05
84	0xb6f9cce6	-7.4446316e-06
85	0xb7a936ad	-2.017183e-05
86	0x37bb9e4f	2.2365855e-05
87	0xb845253b	-4.7003134e-05
88	0xb82c88c1	-4.1135358e-05
89	0x3848c96f	4.7871315e-05
90	0xb8217a70	-3.849942e-05
91	0xb80674f8	-3.2057025e-05
92	0x3831fbf3	4.2434734e-05
93	0xb7e47542	-2.723432e-05
94	0xb7451d13	-1.1748884e-05
95	0x38199112	3.661315e-05
96	0x37346fd8	1.0754877e-05
97	0xb7362664	-1.0856984e-05
98	0x385386a5	5.0431718e-05
99	0x381ed33a	3.7866856e-05
100	0xb8aafb4d	-8.15304e-05
101	0x3825fd80	3.9575156e-05
102	0xb6e98107	-6.958962e-06
103	0xb845c010	-4.7147332e-05
104	0xb8a826aa	-8.018066e-05
105	0xb81343bc	-3.5110614e-05
106	0x3880c99b	6.1410676e-05
107	0x37f84677	2.9596717e-05
108	0xb871569f	-5.753955e-05
109	0xb7b015b5	-2.0990943e-05
110	0xb7a5bb34	-1.9756706e-05
111	0x385bb931	5.238614e-05
112	0x37f39b39	2.9040139e-05
113	0x37f9bac7	2.9770088e-05
114	0xb8024991	-3.106293e-05
115	0x38425598	4.633292e-05
116	0x374b571a	1.2120023e-05
117	0xb7c557fd	-2.3525203e-05
118	0xb8194fc6	-3.6552337e-05
119	0x37f8ae69	2.964512e-05
120	0x3734c8ff	1.0775634e-05
121	0xb801a983	-3.0913867e-05
122	0x37a1b360	1.9276224e-05
123	0x378fca5c	1.714116e-05
124	0xb86dd7f2	-5.6706318e-05
125	0xb83f0c4a	-4.5549394e-05
126	0xb880991e	-6.132036e-05
127	0xb80e5dcc	-3.3942793e-05
128	0x3843651a	4.658578e-05
129	0x38255f1b	3.942764e-05
130	0x38b05b04	8.409287e-05
131	0x383529b4	4.3192602e-05
132	0x37c5be08	2.357272e-05
133	0x38372450	4.366442e-05
134	0xb8a8b2f5	-8.0441976e-05
135	0x3845faa7	4.72019e-05
136	0xb8a0e21f	-7.671513e-05
137	0x38a0b1c6	7.6625074e-05
138	0x385539d5	5.0837018e-05
139	0x38115e8e	3.4658755e-05
140	0xb8c5740f	-9.4153096e-05
141	0x3668c4fc	3.4685354e-06
142	0x3869f7a8	5.5782177e-05
143	0x370ff6b6	8.580906e-06
144	0xb7c6ed86	-2.3714045e-05
145	0x35d2b07a	1.5697581e-06
146	0x388468fc	6.313805e-05
147	0xb6802771	-3.819289e-06
148	0xb70e7172	-8.490273e-06
149	0xb83ef04f	-4.5523335e-05
150	0xb8238b5a	-3.899201e-05
151	0xb8e3d0b1	-0.00010863075
152	0x38015ca1	3.0842264e-05
153	0x38775a24	5.897334e-05
154	0x37176e2e	9.025955e-06
155	0x3871d93c	5.7661193e-05
156	0xb815beef	-3.570219e-05
157	0x37781134	1.4785957e-05
158	0xb7e13b7e	-2.6849793e-05
159	0x37553b09	1.27095345e-05
160	0xb626c854	-2.4852534e-06
161	0xb7c9d867	-2.4061837e-05
162	0xb88af9d9	-6.6268905e-05
163	0xb8225fc8	-3.8713013e-05
164	0x37529619	1.2551923e-05
165	0xb82e623d	-4.1576324e-05
166	0xb8e2a0e6	-0.000108064894
167	0xb8b99394	-8.848976e-05
168	0xb79b91c7	-1.8545323e-05
169	0x3851a756	4.9985327e-05
170	0xb85e1228	-5.2945834e-05
171	0x381c482a	3.7260506e-05
172	0xb7bfccff	-2.2864433e-05
173	0xb7edd010	-2.8349488e-05
174	0x38502c25	4.9632177e-05
175	0x36d98e15	6.4836445e-06
176	0x3809b93e	3.2835866e-05
177	0xb8ae700c	-8.317837e-05
178	0xb7a0a5a4	-1.9150619e-05
179	0xb7e78bc8	-2.7602437e-05
180	0xb7f51fd7	-2.9221103e-05
181	0xb82fc9b7	-4.1911113e-05
182	0x379081f8	1.722666e-05
183	0xb8984331	-7.26044e-05
184	0x382a93c7	4.0668787e-05
185	0x375da6d5	1.321147e-05
186	0xb7022306	-7.756758e-06
187	0xb7ee05df	-2.8374545e-05
188	0x37d68be2	2.5575926e-05
189	0xb7cd9f89	-2.4512194e-05
190	0xb60192da	-1.9307977e-06
191	0xb824aabb	-3.9259652e-05
192	0xb7e2e62d	-2.7048483e-05
193	0xb7cef6e1	-2.4672076e-05
194	0xb89e93a1	-7.561525e-05
195	0x386723b5	5.5107947e-05
196	0x368f1b48	4.264908e-06
197	0xb88cf8e9	-6.722083e-05
198	0x37fbb5cf	3.0006193e-05
199	0x377c4852	1.5037209e-05
200	0x386b8796	5.615464e-05
201	0xb7d6b2b8	-2.559401e-05
202	0xb893ff8d	-7.057106e-05
203	0x37fa607a	2.9847248e-05
204	0x3897f8df	7.246597e-05
205	0x35f57219	1.8287129e-06
206	0x38193c3e	3.6534148e-05
207	0x38c20ad1	9.2526556e-05
208	0xb88396d7	-6.274663e-05
209	0x37bd68c9	2.257935e-05
210	0xb816133f	-3.578071e-05
211	0xb85993da	-5.187453e-05
212	0x384be74f	4.8614394e-05
213	0xb631b4f0	-2.6480375e-06
214	0x37cee7ba	2.466502e-05
215	0x37dac14d	2.6077638e-05
216	0xb7ecb402	-2.8217215e-05
217	0xb6c5c8b4	-5.8944224e-06
218	0xb81f7ce9	-3.8024886e-05
219	0x38867dc7	6.413046e-05
220	0x382ac412	4.0713763e-05
221	0xb73ef956	-1.1382936e-05
222	0xb89ba725	-7.422109e-05
223	0x364926f7	2.9974015e-06
224	0x37efe364	2.8596907e-05
225	0x3866967a	5.4976415e-05
226	0xb804a14b	-3.162147e-05
227	0x383c2a20	4.4861925e-05
228	0xb701e6dd	-7.742751e-06
229	0x36ad57be	5.1660163e-06
230	0x377e6734	1.5163609e-05
231	0xb7e8b5f1	-2.7741278e-05
232	0xb6a6f71b	-4.9759524e-06
233	0x393c3912	0.00017950337
234	0x3766d7fd	1.3759357e-05
235	0xb7b10a0c	-2.1104723e-05
236	0xb7f0aba7	-2.8690161e-05
237	0x38515962	4.9912727e-05
238	0x37c5f68f	2.3599043e-05
239	0x38221af4	3.8648912e-05
240	0xb611203e	-2.1625451e-06
241	0x37ad8393	2.0684476e-05
242	0x373d1444	1.1269996e-05
243	0xb79e733a	-1.8888724e-05
244	0xb7ea3416	-2.7919228e-05
245	0x384e1b87	4.9139864e-05
246	0xb730e784	-1.0544321e-05
247	0xb7e38101	-2.712058e-05
248	0x38b4f121	8.6279826e-05
249	0xb81756de	-3.6082107e-05
250	0x38a576dd	7.889953e-05
251	0x38efb633	0.00011430345
252	0x37335bab	1.06905745e-05
253	0x3804efe6	3.1694675e-05
254	0xb77f4f04	-1.5217582e-05
255	0x378b1a0a	1.6582217e-05

conv1.lin.weight f4 [256, 818]
0	0xbc42954c	-0.011876415
1	0x3d7ac83c	0.061226115
2	0xbcc64973	-0.024204945
3	0xbd771706	-0.06032469
4	0xbba294b8	-0.0049615763
5	0xbc9e7aab	-0.019345602
6	0xbc2a7f96	-0.010406395
7	0xba20177e	-0.0006107016
8	0x3d6d18b0	0.057884872
9	0xbcad8574	-0.0211818
10	0xbd978e9a	-0.07400246
11	0x3c748299	0.014923715
12	0xb9d08a82	-0.00039776048
13	0x3d9921ba	0.07477136
14	0xbcf2f6ee	-0.02965876
15	0xbcef3115	-0.029198209
16	0xbd0c71cc	-0.034288213
17	0x3d3ff25d	0.046861995
18	0x3d0efb4d	0.034907628
19	0x3c392058	0.011299215
20	0xbd506074	-0.050873235
21	0x3d7068e5	0.058693785
22	0x39345db2	0.00017201042
23	0xbc2ae997	-0.010431669
24	0x3c9fec35	0.019521812
25	0xbd8ecc78	-0.06972593
26	0x3d09c052	0.033630677
27	0x3d253416	0.040332876
28	0xbcf6c43c	-0.030122869
29	0x3d71b1fc	0.05900763
30	0x3d6e36ba	0.05815766
31	0x3d8c3417	0.06845873
32	0x3d5b2528	0.05350223
33	0xbd848490	-0.06470597
34	0x3a12c873	0.0005599327
35	0x3cfdccfa	0.03098153
36	0xbc9e47ce	-0.019321349
37	0xbd594be9	-0.05305091
38	0x3d492552	0.049107857
39	0xbc430918	-0.011904024
40	0x3b6505a9	0.0034946
41	0xbd5f88e7	-0.05457392
42	0xbd55c3b0	-0.052188575
43	0xbd523377	-0.051318612
44	0x3d3005f1	0.042974416
45	0x3d834519	0.06409664
46	0x3cf4b76f	0.029872624
47	0xbabf0f61	-0.0014576727
48	0xbd610fda	-0.054946758
49	0xbc2eef63	-0.010677191
50	0xbc8c6350	-0.0171372
51	0xbd914f9c	-0.070952624
52	0xbd1b5e17	-0.037931528
53	0x3d5b96e3	0.053610694
54	0xbd8aa3eb	-0.06769546
55	0x3d2d6811	0.042335574
56	0xbb98fe2c	-0.0046689715
57	0x3bd3ff0d	0.0064696134
58	0xbcb7acc3	-0.022421246
59	0xbd4f5e54	-0.050627068
60	0xbd395057	-0.045242634
61	0xbd912edb	-0.07089015
62	0x3d049c84	0.032375827
63	0xbd81dd5b	-0.06341048
64	0xbbd7ca01	-0.00658536
65	0xbc816d30	-0.015799135
66	0xbd3bb2cb	-0.045824807
67	0x3d7f1f1b	0.062285524
68	0x3ce47c2b	0.02789124
69	0x3d9113a4	0.07083824
70	0x3c0c82b8	0.008576088
71	0x3caa7875	0.020809392
72	0x3d453c49	0.048153196
73	0xbd865150	-0.06558478
74	0xbce60485	-0.028078327
75	0xbd1b809b	-0.037964445
76	0xbd2b0dbd	-0.04176115
77	0xbc282333	-0.010262298
78	0x3b95ea40	0.004575044
79	0xbd55327b	-0.052050095
80	0x3d264502	0.040593155
81	0x3cee163f	0.029063342
82	0xbd846b57	-0.06465786
83	0x3c164714	0.00917222
84	0x3cdca6f4	0.026935078
85	0x3d1135a7	0.035451557
86	0x3d4d25e4	0.050084963
87	0x3cf2564a	0.029582161
88	0xbd8134d9	-0.06308908
89	0xbd8af5ab	-0.06785139
90	0x3d3901b3	0.045167636
91	0x3d8d6e5a	0.069058135
92	0xbd92a063	-0.071594976
93	0xbd94d881	-0.07267857
94	0x3cd30459	0.025758909
95	0xbd691624	-0.05690588
96	0xbd5b792e	-0.053582363
97	0x3b08d569	0.0020879155
98	0x3d408b44	0.047007814
99	0xbcd3d5cc	-0.025858782
100	0xbce4d345	-0.027932772
101	0xbd507845	-0.050895948
102	0xbca0ff72	-0.019653056
103	0xbd825752	-0.06364311
104	0x3d3adc98	0.04562053
105	0x3cc92c7f	0.02455735
106	0xbd7b7768	-0.06139317
107	0xbd3dd563	-0.04634608
108	0xbd02e778	-0.031959027
109	0xbd4cc0b4	-0.049988464
110	0x3bad01b7	0.0052797454
111	0xbd8e919a	-0.06961365
112	0xbd3f40c2	-0.046692617
113	0x3cfbd40d	0.030740762
114	0xbd2a5c47	-0.04159191
115	0x3bf4b12b	0.007467409
116	0xbd844c24	-0.06459835
117	0x3d93fcaa	0.07225926
118	0xbd80b9f3	-0.06285467
119	0xbd3cdefc	-0.046111092
120	0xbd0da988	-0.034585506
121	0xbd14f965	-0.036370654
122	0xbd59cf6d	-0.053176332
123	0x3d77ba9f	0.06048071
124	0xbd00af1c	-0.031416997
125	0xbd4765a5	-0.04868092
126	0xbc39c08d	-0.011337412
127	0x3d7df040	0.0619967
128	0xbc974c04	-0.018468864
129	0xbca8548f	-0.020548133
130	0x3d05fae5	0.032709975
131	0xbbef4cd5	-0.0073028603
132	0x3d81059d	0.06299899
133	0xbd1c1216	-0.038103186
134	0x3d2f0067	0.042724993
135	0xbd0f94df	-0.035054084
136	0xbc067c37	-0.008208326
137	0x3b1dac2f	0.0024058928
138	0x3adee61c	0.0017005834
139	0xbd3f1277	-0.04664847
140	0x3ce70316	0.028199714
141	0x3d719c85	0.05898716
142	0xbd39863f	-0.045294043
143	0x3d786e0f	0.060651835
144	0x3cc46abb	0.023976674
145	0x3cc6d2e5	0.024270484
146	0x3d1eba2b	0.038751762
147	0xbd98741c	-0.07444021
148	0xbd054dd6	-0.032544933
149	0xbd1b3883	-0.03789569
150	0x3cb4f10b	0.022087594
151	0xbd1fc285	-0.039003868
152	0x3d5fd86a	0.054649748
153	0xbd9bd275	-0.07608501
154	0x3c4ec769	0.012620785
155	0xbc7bb326	-0.015362537
156	0xbc847e1b	-0.016173413
157	0xbd776793	-0.06040151
158	0x3c8eeefa	0.017447937
159	0xbca632d0	-0.020287901
160	0x3d24d9a5	0.040246624
161	0xbd81a28b	-0.06329831
162	0x3d98d0c4	0.07461694
163	0x3d2513f1	0.04030222
164	0x3d3d97fb	0.046287518
165	0x3cf6fb47	0.030149115
166	0xbd8a78c8	-0.067613184
167	0xbd78a342	-0.06070257
168	0x3c94cd56	0.018164318
169	0xbd453b73	-0.0481524
170	0x3beab813	0.0071630566
171	0x3d810aee	0.06300913
172	0xbd9045d2	-0.07044567
173	0x3cbee9fc	0.023304932
174	0xbd77e106	-0.060517333
175	0xbcf1e32d	-0.029527271
176	0x3d6cb278	0.05778739
177	0xbccbe75f	-0.0248906
178	0xbd8fc591	-0.07020105
179	0x3d42cbd3	0.047557663
180	0x3be5ef6e	0.0070170676
181	0x3d9065be	0.07050656
182	0xbd940af9	-0.07228655
183	0x3d0857a3	0.033286702
184	0xbd4c75fd	-0.04991721
185	0xbd23d138	-0.03999445
186	0xbd350cc2	-0.04420162
187	0x3c25618a	0.010094056
188	0xbd0cfa36	-0.034418307
189	0x3a446041	0.00074911496
190	0x3c2aeedc	0.010432925
191	0xbd8d415e	-0.068972334
192	0x3d674996	0.05646666
193	0x3c1ec5a0	0.009690672
194	0x3ca3d38a	0.01999833
195	0xbc78b8b3	-0.0151807545
196	0xbd295af7	-0.041346516
197	0xb998a02b	-0.00029111034
198	0xbc96bd81	-0.01840091
199	0x3d3e059c	0.04639207
200	0x3c880f90	0.016608983
201	0xbd2d7101	-0.042344097
202	0xbbdedfae	-0.006801567
203	0xbb1261ca	-0.002233612
204	0xbb8f9c5a	-0.004382652
205	0x3d163071	0.03666729
206	0x3d5e3e9c	0.054258928
207	0x3c482aef	0.012217267
208	0x3d438a70	0.047739446
209	0xbd8eb193	-0.06967463
210	0xbc94ec59	-0.018179106
211	0x3cd900ad	0.02648958
212	0xbcf245a8	-0.02957423
213	0xbce16da9	-0.02751811
214	0xbd3d5c87	-0.04623082
215	0xbd110f0f	-0.03541475
216	0x3d0bfa14	0.03417404
217	0xbd3b1832	-0.04567737
218	0xbd7751d4	-0.06038077
219	0xbc961537	-0.018320663
220	0x3d706cfd	0.05869769
221	0x3d6bc364	0.057559386
222	0x3d870207	0.065921836
223	0xbbfa9aa9	-0.0076478315
224	0x3d484799	0.048896406
225	0xbc1d8d26	-0.009616172
226	0xbd2eea36	-0.04270383
227	0xbc78c2e5	-0.015183185
228	0x3c97b7c0	0.018520236
229	0xbcf444f0	-0.029818028
230	0x3c9e1636	0.0192977
231	0x3d76520e	0.060136847
232	0xbd84052a	-0.064462975
233	0x3d7425ba	0.05960629
234	0xbd09581e	-0.0335313
235	0xbcf72737	-0.030170066
236	0x3d0545a2	0.03253711
237	0x3d6656ae	0.056235008
238	0x3c78cbef	0.01518534
239	0xbd0c7491	-0.034290854
240	0x3d5d7af6	0.054072343
241	0xbd8099f5	-0.06279365
242	0xbc6e8b29	-0.014559546
243	0x3d8e858a	0.06959064
244	0xbd8a933d	-0.06766365
245	0xbcbcff66	-0.023071002
246	0x3bf939a6	0.007605749
247	0x3d6c4890	0.05768639
248	0x3d3f6bde	0.04673373
249	0x3bcba850	0.006215133
250	0x3d0a1001	0.03370667
251	0xbd9211e6	-0.0713232
252	0x3d14b18e	0.03630214
253	0x3d7b10ee	0.061295442
254	0x3c7e24ce	0.015511705
255	0xbc549639	-0.012975269

bn1.module.weight f4 [256]
0	0x3f7f57fc	0.9974363
1	0x3f80740d	1.0035416
2	0x3f7ecd07	0.99531597
3	0x3f809820	1.0046425
4	0x3f8040f5	1.0019823
5	0x3f7f8fb2	0.99828637
6	0x3f7ef3b6	0.99590623
7	0x3f7eea2d	0.99576074
8	0x3f807dc0	1.0038376
9	0x3f7f4771	0.99718386
10	0x3f7f32af	0.9968671
11	0x3f809f8a	1.0048687
12	0x3f800ffd	1.0004879
13	0x3f7f69fb	0.9977109
14	0x3f8094ec	1.0045447
15	0x3f7ef14e	0.9958695
16	0x3f800e49	1.000436
17	0x3f8082f3	1.0039963
18	0x3f7f2809	0.99670464
19	0x3f8061b8	1.0029821
20	0x3f7f925b	0.99832696
21	0x3f7f29b9	0.9967304
22	0x3f7f3f11	0.99705607
23	0x3f8059a9	1.0027362
24	0x3f8010bf	1.000511
25	0x3f7f9c4f	0.99847883
26	0x3f7f1b83	0.99651355
27	0x3f8042e8	1.0020418
28	0x3f808ebd	1.004356
29	0x3f7fed9b	0.9997193
30	0x3f808656	1.0040996
31	0x3f7ee08f	0.995614
32	0x3f7f3dab	0.9970347
33	0x3f7f6b3a	0.9977299
34	0x3f8076d4	1.0036263
35	0x3f7f2b21	0.99675184
36	0x3f7fbe49	0.9989973
37	0x3f7ee744	0.99571633
38	0x3f804885	1.0022131
39	0x3f805f3f	1.0029067
40	0x3f7f5948	0.9974561
41	0x3f800040	1.0000076
42	0x3f7f26ad	0.9966839
43	0x3f7f1fec	0.99658084
44	0x3f80335d	1.0015675
45	0x3f805212	1.0025046
46	0x3f7f765a	0.99789965
47	0x3f7fe063	0.9995176
48	0x3f7fcfe6	0.999266
49	0x3f8037e8	1.0017061
50	0x3f7f8790	0.99816227
51	0x3f808b3e	1.0042493
52	0x3f7efa86	0.9960102
53	0x3f804c1d	1.0023228
54	0x3f7fbe2a	0.9989954
55	0x3f808a16	1.004214
56	0x3f7ee198	0.9956298
57	0x3f7ef63a	0.9959446
58	0x3f80687a	1.0031884
59	0x3f801874	1.0007463
60	0x3f802685	1.0011755
61	0x3f8082f8	1.0039968
62	0x3f7f3514	0.99690366
63	0x3f7eedbe	0.99581516
64	0x3f7ef19e	0.9958743
65	0x3f8077d5	1.003657
66	0x3f8075d5	1.003596
67	0x3f7f5e58	0.9975333
68	0x3f7eed40	0.99580765
69	0x3f809da1	1.0048105
70	0x3f7f148b	0.9964072
71	0x3f7edb00	0.9955292
72	0x3f808e1f	1.0043372
73	0x3f805794	1.0026727
74	0x3f7fa614	0.9986279
75	0x3f7ffd4d	0.9999588
76	0x3f8057db	1.0026811
77	0x3f7f7076	0.99780977
78	0x3f7f6d1c	0.9977586
79	0x3f7fcf42	0.99925625
80	0x3f8007c5	1.0002371
81	0x3f807bfe	1.003784
82	0x3f809201	1.0044557
83	0x3f800569	1.0001651
84	0x3f8039bb	1.0017618
85	0x3f7f471c	0.9971788
86	0x3f807980	1.0037079
87	0x3f808616	1.004092
88	0x3f7f41a6	0.99709547
89	0x3f8084bb	1.0040506
90	0x3f7ec495	0.9951871
91	0x3f803423	1.0015911
92	0x3f802132	1.001013
93	0x3f7f8f9d	0.9982851
94	0x3f804667	1.0021485
95	0x3f7ff95a	0.99989855
96	0x3f80710a	1.0034497
97	0x3f800601	1.0001832
98	0x3f80906c	1.0044074
99	0x3f801928	1.0007677
100	0x3f7fea15	0.99966556
101	0x3f7f1959	0.9964805
102	0x3f80011b	1.0000337
103	0x3f7fcf4e	0.99925697
104	0x3f7f2c7d	0.9967726
105	0x3f801e0a	1.0009167
106	0x3f7ec84b	0.9952437
107	0x3f80610b	1.0029615
108	0x3f7fb86a	0.9989077
109	0x3f7fc889	0.9991537
110	0x3f7f13c8	0.9963956
111	0x3f807e37	1.0038518
112	0x3f809321	1.00449
113	0x3f7f9762	0.99840367
114	0x3f7f6b14	0.99772763
115	0x3f806e6e	1.00337
116	0x3f7edcb6	0.9955553
117	0x3f7f1d68	0.99654245
118	0x3f808c7b	1.0042871
119	0x3f804c51	1.002329
120	0x3f807fc9	1.0038997
121	0x3f803218	1.0015287
122	0x3f802181	1.0010225
123	0x3f7eeed2	0.9958316
124	0x3f8089b2	1.0042021
125	0x3f807bc0	1.0037766
126	0x3f7f2b42	0.9967538
127	0x3f809084	1.0044103
128	0x3f7ef88f	0.9959802
129	0x3f7ee39a	0.9956604
130	0x3f801d94	1.0009027
131	0x3f7f7ec5	0.9980281
132	0x3f8011be	1.0005414
133	0x3f805efb	1.0028986
134	0x3f80083a	1.000251
135	0x3f8037d6	1.001704
136	0x3f7ef210	0.9958811
137	0x3f7f0706	0.9962009
138	0x3f7f55d4	0.9974034
139	0x3f7fd226	0.99930036
140	0x3f7eff72	0.9960853
141	0x3f7f9e7c	0.998512
142	0x3f7ee76e	0.99571884
143	0x3f805f13	1.0029014
144	0x3f80827c	1.0039821
145	0x3f803270	1.0015392
146	0x3f807684	1.0036168
147	0x3f809975	1.0046831
148	0x3f801f9b	1.0009645
149	0x3f7ff91d	0.9998949
150	0x3f804c09	1.0023204
151	0x3f7fb54a	0.99886
152	0x3f807e2f	1.0038508
153	0x3f7f0728	0.99620295
154	0x3f8007aa	1.0002339
155	0x3f7fc45c	0.99908996
156	0x3f802960	1.0012627
157	0x3f7f1026	0.99634016
158	0x3f800c91	1.0003835
159	0x3f7f8565	0.9981292
160	0x3f8044f2	1.002104
161	0x3f7fbe4e	0.99899757
162	0x3f7f7e7e	0.99802387
163	0x3f7edac7	0.9955258
164	0x3f80200f	1.0009784
165	0x3f804c66	1.0023315
166	0x3f805f77	1.0029134
167	0x3f7f1b7e	0.99651325
168	0x3f7ed1f3	0.9953911
169	0x3f7ef42d	0.9959133
170	0x3f801bef	1.0008525
171	0x3f7eee2d	0.9958218
172	0x3f805c0d	1.0028092
173	0x3f8060be	1.0029523
174	0x3f807367	1.0035218
175	0x3f8093f9	1.0045158
176	0x3f804cc3	1.0023426
177	0x3f80330d	1.001558
178	0x3f80887a	1.0041649
179	0x3f7efffe	0.99609363
180	0x3f7edd72	0.9955665
181	0x3f803477	1.0016011
182	0x3f8098de	1.0046651
183	0x3f8004c2	1.0001452
184	0x3f7ffdd0	0.9999666
185	0x3f7eeafb	0.995773
186	0x3f7f061c	0.996187
187	0x3f7ee394	0.99566007
188	0x3f7f0c5a	0.9962822
189	0x3f802014	1.000979
190	0x3f7fb6e3	0.9988844
191	0x3f802631	1.0011655
192	0x3f807492	1.0035574
193	0x3f80003c	1.0000072
194	0x3f8025ac	1.0011497
195	0x3f806343	1.0030292
196	0x3f809811	1.0046407
197	0x3f7fb3cd	0.9988373
198	0x3f7fb3c4	0.99883676
199	0x3f8023f4	1.0010972
200	0x3f7f4214	0.997102
201	0x3f7f1c90	0.9965296
202	0x3f803e7b	1.0019068
203	0x3f8064f8	1.0030813
204	0x3f8025c6	1.0011528
205	0x3f802989	1.0012676
206	0x3f7f9c39	0.9984775
207	0x3f8091c2	1.0044482
208	0x3f7fd916	0.9994062
209	0x3f7f3543	0.99690646
210	0x3f7ed8c3	0.995495
211	0x3f7eeebb	0.99583024
212	0x3f8078c8	1.003686
213	0x3f7f2187	0.99660534
214	0x3f7fa9f3	0.99868697
215	0x3f7fed7e	0.9997176
216	0x3f805983	1.0027317
217	0x3f8000f1	1.0000287
218	0x3f7fc2ee	0.99906814
219	0x3f8037ad	1.0016991
220	0x3f7ee483	0.9956743
221	0x3f7ece58	0.99533606
222	0x3f7f1d55	0.9965413
223	0x3f7efb58	0.9960227
224	0x3f802de5	1.0014006
225	0x3f801ba7	1.0008439
226	0x3f8076dd	1.0036274
227	0x3f7ef85f	0.99597734
228	0x3f7faa29	0.9986902
229	0x3f7f0291	0.9961329
230	0x3f80113a	1.0005257
231	0x3f804ce4	1.0023465
232	0x3f7fee64	0.9997313
233	0x3f7ffa58	0.9999137
234	0x3f7f32af	0.9968671
235	0x3f7ef4f7	0.99592537
236	0x3f8097b5	1.0046297
237	0x3f805701	1.0026551
238	0x3f7fff09	0.9999853
239	0x3f7f821d	0.9980791
240	0x3f808c79	1.0042869
241	0x3f80232b	1.0010732
242	0x3f7f2ed5	0.99680835
243	0x3f7ed1f6	0.99539125
244	0x3f7f4f76	0.9973062
245	0x3f7f86fc	0.99815345
246	0x3f7ed42a	0.99542487
247	0x3f808b89	1.0042583
248	0x3f7f03e8	0.99615335
249	0x3f7f301f	0.996828
250	0x3f806bb4	1.0032868
251	0x3f8090a5	1.0044142
252	0x3f80022d	1.0000664
253	0x3f80895e	1.0041921
254	0x3f808679	1.0041038
255	0x3f7f30e8	0.99684

bn1.module.bias f4 [256]
0	0xbb68d6c5	-0.0035528403
1	0xbb81150e	-0.0039392775
2	0xbb9bb373	-0.0047516166
3	0x3b991ba1	0.004672483
4	0xbba19e32	-0.0049321884
5	0xbb85c9d0	-0.004082896
6	0xbb8fa9cf	-0.0043842564
7	0xbb8ff4c0	-0.00439319
8	0x3b7f2a44	0.0038935104
9	0x3b97145c	0.0046105813
10	0xba5dc55a	-0.00084598886
11	0x3b9e8726	0.0048378883
12	0x3b5eeb68	0.0034014825
13	0xbb6d985a	-0.0036254139
14	0xbaf2f6cb	-0.0018536685
15	0xbb8416d0	-0.00403104
16	0x38fd90d1	0.00012090954
17	0xbb3c6fde	-0.0028753201
18	0x3a8f3562	0.0010925943
19	0x3b8b7d03	0.004256846
20	0xbb1bf168	-0.0023795012
21	0xbb9540f8	-0.004554864
22	0x3b7983b5	0.0038072888
23	0x3b7fb94e	0.0039020362
24	0x3b9b9a17	0.0047485936
25	0xba2a9d34	-0.00065084104
26	0xbb7820f6	-0.0037861443
27	0xba4935a0	-0.0007675532
28	0x3b8efe15	0.004363785
29	0xbaca3a97	-0.0015428838
30	0x3b5d08a9	0.0033727086
31	0xbb3d54e4	-0.002888971
32	0xbb7e16ab	-0.0038770835
33	0xbaaa24bf	-0.0012980922
34	0x3b81eae4	0.0039647687
35	0xbb3e5f0f	-0.0029048359
36	0x3b9bc0ef	0.004753224
37	0xbb94b057	-0.004537623
38	0x3b715e65	0.0036829945
39	0x3b83d84e	0.0040235883
40	0xbb908b7b	-0.0044111586
41	0x3b5980a9	0.003318826
42	0x3a9e05d0	0.0012056176
43	0xb9fc2645	-0.000480937
44	0xbb05937e	-0.0020382102
45	0x3b7550c2	0.0037432169
46	0xbb71dae3	-0.0036904148
47	0xbb526b6a	-0.003210748
48	0xb756b069	-1.2796468e-05
49	0xbb2439a9	-0.0025058782
50	0x3b313cc7	0.0027044283
51	0x3b9124ca	0.0044294344
52	0xbb9d1ae8	-0.0047944672
53	0xbb899854	-0.004199067
54	0x3b347873	0.0027537614
55	0xba811b2a	-0.0009850014
56	0xbb706bd1	-0.0036685357
57	0x3b47b68a	0.0030473792
58	0x3adea9bd	0.0016987842
59	0x3ac5b987	0.0015085199
60	0x3a16484d	0.00057328196
61	0xbb8aeeeb	-0.004239907
62	0xbb450949	-0.003006535
63	0xbb95bdf1	-0.004569762
64	0xbb530d86	-0.0032204106
65	0x3b8325f8	0.004002329
66	0x3b25da35	0.0025307063
67	0x3a9af029	0.0011820841
68	0x3a5838f4	0.0008248233
69	0xbab28887	-0.0013621011
70	0x38d45c1d	0.00010126105
71	0xba4d795e	-0.00078382145
72	0x3b539b75	0.0032288705
73	0x3b589657	0.0033048594
74	0xbadcfb96	-0.0016859646
75	0x3b9e2d35	0.0048271664
76	0x3b981be2	0.0046419958
77	0x3a2da1ea	0.00066235533
78	0xbb8dbd16	-0.0043255193
79	0x3b88dcf4	0.0041767303
80	0xbb8ced72	-0.0043007666
81	0x3b9ab6e9	0.0047215116
82	0x3b5ad1e4	0.0033389265
83	0xbb8bac53	-0.004262486
84	0x3aea7bee	0.0017889717
85	0xbac773fb	-0.001521706
86	0x3ab9c50d	0.0014173106
87	0x3b50ec7e	0.0031879242
88	0x3b5fbc0d	0.0034139187
89	0x3b91af87	0.0044459733
90	0xbb91f9cf	-0.0044548283
91	0xbb0e2e45	-0.002169506
92	0x3b96df4a	0.004604255
93	0xbb149c35	-0.0022676114
94	0xbb6587fe	-0.0035023685
95	0xbb0af8ac	-0.002120535
96	0x3b8f7f97	0.0043792236
97	0xbb639957	-0.003472885
98	0xbb2501cd	-0.0025178075
99	0xbb7be416	-0.003843551
100	0x3b6117d3	0.0034346476
101	0xbb3ced9b	-0.0028828147
102	0x3ab0e947	0.0013497256
103	0xbb97515d	-0.0046178536
104	0xbb873373	-0.0041260063
105	0xbb6ee724	-0.0036453689
106	0xbba32eb9	-0.004979935
107	0x3b970764	0.0046090353
108	0x3b82ef87	0.003995839
109	0x3b828af2	0.0039838487
110	0xbb893992	-0.004187771
111	0x3a93c992	0.0011275283
112	0xbb806311	-0.0039180596
113	0xbb3bbab9	-0.002864523
114	0xbb8fc9b7	-0.00438806
115	0x3b977c53	0.004622975
116	0x3a93a080	0.0011263043
117	0xbb1422b6	-0.0022603697
118	0xbae20e79	-0.0017246745
119	0x3b4d5dbd	0.003133639
120	0x3b833a05	0.004004719
121	0xb957e788	-0.0002059025
122	0x3b7879b0	0.0037914328
123	0xbb8579fa	-0.0040733786
124	0xbb908942	-0.0044108937
125	0x3b693e37	0.0035590061
126	0xbb84533c	-0.0040382426
127	0xbb64dfc7	-0.003492342
128	0xbb97d726	-0.004633802
129	0xba56917d	-0.00081851316
130	0xbb5592f2	-0.0032588807
131	0xbb8d64a8	-0.0043149777
132	0xbb9365e8	-0.004498232
133	0xbb52a463	-0.003214144
134	0xbb9de195	-0.0048181512
135	0xbb5e9188	-0.0033961255
136	0xbb809afe	-0.0039247265
137	0xbb32b70c	-0.002726975
138	0xbb8d40af	-0.0043106894
139	0xbb210c67	-0.0024574043
140	0xbb5e7698	-0.00339452
141	0xba84f43a	-0.0010143586
142	0xb859941b	-5.1874766e-05
143	0xbb94b371	-0.0045379926
144	0x3b425ae9	0.0029656237
145	0x3b5c32ed	0.003359969
146	0xbb80d90a	-0.003932123
147	0x39a13781	0.00030749667
148	0x3b170b76	0.0023047603
149	0xbb98031c	-0.0046390425
150	0x3b9ad937	0.004725601
151	0xbb8e8281	-0.0043490534
152	0xba971b98	-0.0011528609
153	0xbb6cc2d8	-0.0036126878
154	0xbb965b5d	-0.004588528
155	0xba58ef4f	-0.0008275406
156	0xbb68ef28	-0.003554294
157	0xbb4abb86	-0.0030934527
158	0xbb925ba8	-0.0044664927
159	0xbb88466c	-0.0041587856
160	0x3b51fc02	0.0032041078
161	0xbb7d141e	-0.0038616727
162	0x3b86a485	0.0041089677
163	0x3b86ca94	0.0041135047
164	0xbb970dfe	-0.0046098223
165	0x3b5776fc	0.0032877317
166	0x3b77f2fd	0.0037834041
167	0xbb99f7aa	-0.0046987133
168	0x3a188e5d	0.00058195536
169	0xbb8221c8	-0.003971312
170	0x3b01dfd4	0.001981725
171	0xbb7926f3	-0.00380176
172	0xbb434f28	-0.002980182
173	0xba2e7417	-0.0006654872
174	0x3b56933a	0.0032741562
175	0x3b9bb4f2	0.004751795
176	0xbab7f5b5	-0.0014035018
177	0xbb823d60	-0.0039746016
178	0x3b832879	0.0040026275
179	0xb9f1a9d8	-0.00046093646
180	0x3ba01df5	0.0048863837
181	0xbb92cf44	-0.0044802744
182	0xbb580a02	-0.003296495
183	0x3b39dc2c	0.0028359992
184	0xbb9186ff	-0.0044411416
185	0xbb822ad0	-0.003972389
186	0xbb8e2df9	-0.0043389765
187	0xbb709413	-0.0036709353
188	0xbb86c9ac	-0.0041133966
189	0x3b822b4f	0.003972448
190	0xbb412e9f	-0.0029477251
191	0x3b790591	0.0037997703
192	0xbb8512fc	-0.004061101
193	0xbb88db17	-0.004176508
194	0x3b6c3de6	0.0036047637
195	0xbb65e468	-0.0035078768
196	0x3b6a9f78	0.0035800617
197	0xbb7a50c8	-0.0038195122
198	0xbb097d2f	-0.0020979156
199	0x3b4d1696	0.003129398
200	0xbb819f0c	-0.0039557274
201	0xbb839397	-0.004015397
202	0xbb90a963	-0.0044147237
203	0x3b820d8d	0.0039689005
204	0x3b573cad	0.0032842562
205	0xba65f36f	-0.0008771931
206	0xbb89e208	-0.004207853
207	0xbb25c8d8	-0.0025296714
208	0xbb8159e1	-0.003947482
209	0xbb6742ff	-0.0035287736
210	0xbb79bf68	-0.0038108472
211	0x3b3ba064	0.0028629536
212	0xbb7a21c0	-0.003816709
213	0xbb895462	-0.0041909674
214	0xbb8ef6ef	-0.004362933
215	0xbb5acef9	-0.0033387525
216	0xbb586071	-0.0033016468
217	0x3b3c71ce	0.0028754356
218	0xbad39eac	-0.001614531
219	0xbad19b00	-0.0015991628
220	0xbb5ec472	-0.0033991602
221	0xbb985eba	-0.004649964
222	0xbb8a9ca8	-0.0042301007
223	0x3b951d75	0.0045506307
224	0xba9435b2	-0.0011307506
225	0xbb5a1f56	-0.0033282838
226	0x3b68713f	0.003546789
227	0xbb8ee20b	-0.0043604425
228	0x3b9be0be	0.004757016
229	0xbb806df2	-0.0039193565
230	0xba61d632	-0.00086149864
231	0x3b845e2d	0.004039547
232	0xba225cf5	-0.0006193661
233	0xbb829415	-0.003984938
234	0xbb9995f9	-0.0046870676
235	0xbb87b84e	-0.004141844
236	0x3b920e37	0.004457261
237	0xbb937780	-0.0045003295
238	0x39a5db2b	0.00031634545
239	0xbb9bfb6f	-0.004760198
240	0x3b182eeb	0.0023221325
241	0xbb5bfa2d	-0.0033565864
242	0xbb8970f5	-0.0041943737
243	0xbb8d2d29	-0.004308362
244	0xbb96f018	-0.004606258
245	0xb98d6679	-0.00026969964
246	0x3b0678ae	0.0020518708
247	0xbb897194	-0.004194448
248	0xbb646dcd	-0.0034855485
249	0x397e636b	0.00024260364
250	0xb9a019a2	-0.00030536676
251	0x3b8c9028	0.0042896457
252	0x3a4c6432	0.00077969127
253	0xba1940d9	-0.000584615
254	0x3a258ffd	0.00063157064
255	0xbb76737f	-0.0037605462

bn1.module.running_mean f4 [256]
0	0x3bbaf862	0.005705879
1	0xbb2ff0d5	-0.0026846428
2	0xbac1a404	-0.0014773612
3	0x3c048b0a	0.00808979
4	0xbc4e59d3	-0.012594658
5	0x3b91f074	0.004453713
6	0x3b0d0e3b	0.0021523375
7	0x3c3eaf05	0.011638408
8	0x3c29ade0	0.010356396
9	0xbc336df9	-0.0109515125
10	0x3ca6310b	0.020287057
11	0x3c8c9607	0.017161382
12	0x3a9512c4	0.001137339
13	0x3c39cbbb	0.011340077
14	0x3ca5e072	0.020248625
15	0xbcb40bc2	-0.021978263
16	0xbc893cf5	-0.0167527
17	0x3ce21819	0.027599381
18	0x3bf68285	0.0075228834
19	0x3cbcee1a	0.023062754
20	0x3b9035dc	0.004400952
21	0x3b4bfecb	0.003112721
22	0x3b07a240	0.0020696074
23	0x3c11b496	0.008893153
24	0x3c86fb5a	0.016477276
25	0xbb892e38	-0.004186418
26	0x3ba06471	0.004894786
27	0xbb9447ea	-0.0045251744
28	0xbad283ef	-0.0016061048
29	0xba7badb1	-0.0009600772
30	0xbc54014d	-0.012939763
31	0x3bca7a12	0.0061791027
32	0x3c3b62b0	0.011437103
33	0xbccae814	-0.024768867
34	0x3cd18257	0.025574846
35	0x3c889129	0.01667078
36	0x3ba7e2a4	0.005123453
37	0xbb54b634	-0.0032457234
38	0xbd10bd3a	-0.03533671
39	0x3c07aec7	0.008281416
40	0x3c318a3d	0.010836181
41	0x3c59b71e	0.013288287
42	0xbc83801e	-0.016052302
43	0x3c749d48	0.014930077
44	0xbb9bdd37	-0.0047565955
45	0x3ca47d14	0.020079173
46	0x390138f0	0.0001232361
47	0x3c0d4212	0.008621709
48	0xbb2a741a	-0.0026009143
49	0x3c229a38	0.009924464
50	0xbc9d886b	-0.019230088
51	0x3c788d16	0.015170356
52	0x3c843359	0.016137766
53	0xbca4b1ce	-0.020104315
54	0x3bc4d71b	0.006007088
55	0x3a88a718	0.0010425774
56	0x3c94ae02	0.01814938
57	0x3b52287c	0.0032067588
58	0x3bf524c1	0.007481188
59	0x3c990bdf	0.018682418
60	0xbc225c21	-0.009909661
61	0x3b0e7785	0.002173872
62	0xbb40a3de	-0.0029394547
63	0xbbbe214f	-0.0058023105
64	0xbbc0b71f	-0.0058812047
65	0x3c2f4aa5	0.010698949
66	0x3c4cf614	0.0125098415
67	0x3c12da63	0.0089632
68	0x3c50ccfd	0.0127441855
69	0xbbad7ec7	-0.005294654
70	0x3c9cc881	0.019138576
71	0xbc80e12f	-0.015732376
72	0xbcb6a097	-0.022293372
73	0x3b2f28ee	0.0026727277
74	0xbb8a9758	-0.0042294674
75	0x3c13db6d	0.009024483
76	0x3cf6da01	0.03013325
77	0xbc97b2ba	-0.01851784
78	0x3a1eac0f	0.00060528604
79	0x3c7f1ad3	0.01557036
80	0x3b1a2e9a	0.0023526312
81	0x3b9850b2	0.0046482915
82	0xbb6a98d7	-0.0035796666
83	0x3c003f5f	0.007827609
84	0x3c64ec9e	0.01397243
85	0x3be42b6a	0.006963183
86	0x3c70e375	0.0147026675
87	0x3cef34d9	0.029200004
88	0x3b8654f3	0.004099482
89	0xbca4375c	-0.020045929
90	0x3bd770ba	0.0065747174
91	0x3c1f02db	0.009705271
92	0xbb936997	-0.0044986713
93	0xbaba9d64	-0.001423758
94	0x3b177fe0	0.002311699
95	0x3c213cf4	0.0098411925
96	0x3cb01fd2	0.021499548
97	0x3c6f0d66	0.014590597
98	0xbc7c279b	-0.015390302
99	0x3c3ea6f9	0.011636489
100	0xbb4e354d	-0.0031464875
101	0xbb8d2329	-0.00430717
102	0x3cb3380b	0.02187731
103	0x3b487053	0.0030584529
104	0x3bd9f1fd	0.0066511617
105	0x3cc83e55	0.024443785
106	0xbc01cd39	-0.007922464
107	0x3cecc58e	0.028902795
108	0xbbe9b26a	-0.0071318643
109	0xbc5ace63	-0.0133548705
110	0x3bba0299	0.005676579
111	0x3c898445	0.016786704
112	0x3ab13db2	0.0013522415
113	0x3c520e55	0.0128208
114	0x3d1ba941	0.03800321
115	0xbb9361a8	-0.0044977255
116	0x3c482eb5	0.012218167
117	0xbc1c4c8e	-0.009539736
118	0xbc827393	-0.01592425
119	0x3c3ef25a	0.011654461
120	0x3b8541fd	0.0040667043
121	0x39e10111	0.0004291614
122	0xbb589ca7	-0.0033052356
123	0xbc43721e	-0.011929063
124	0xbb2bae01	-0.0026196244
125	0x3c9536f2	0.018214677
126	0x3c5c81b4	0.013458658
127	0xbaf2e8cd	-0.0018532515
128	0xbc274173	-0.010208475
129	0xbc26cc3d	-0.01018053
130	0x3c9a6648	0.0188476
131	0x3ce95f31	0.028487774
132	0xbbf14f9a	-0.0073642256
133	0x3c8eb5fc	0.017420761
134	0xbc9f9050	-0.019477993
135	0xbb13cd89	-0.0022552928
136	0x3b25cb34	0.002529812
137	0xbb8b3b3a	-0.0042490037
138	0xbc01d339	-0.007923895
139	0xbc3f9d31	-0.011695192
140	0xbc5ed1eb	-0.013599853
141	0x3c210332	0.009827422
142	0x3cb71ed3	0.022353565
143	0x3ca0794c	0.019589089
144	0xbc1ee3e1	-0.009697885
145	0xbc5bcb2a	-0.013415137
146	0x3b65877a	0.0035023377
147	0xbc913f73	-0.01773045
148	0xbaa1ddf3	-0.0012349471
149	0xbb95f0eb	-0.004575839
150	0xbcb2fd8e	-0.02184942
151	0xbcb3d760	-0.021953285
152	0xbc61d01f	-0.01378253
153	0x3cce6e25	0.025199005
154	0xbc8452bc	-0.016152732
155	0xbcbd8dc9	-0.023138897
156	0xbb67b6b9	-0.0035356714
157	0x3c7ff4a1	0.015622289
158	0x3c99c2f5	0.01876972
159	0xbc982f13	-0.018577134
160	0x3d03855f	0.032109614
161	0x3b172e48	0.0023068357
162	0xbcace3ee	-0.02110478
163	0x3c0a0ac9	0.008425423
164	0x3b8ac03f	0.0042343433
165	0x3b5d6b54	0.0033785896
166	0x39301d39	0.00016795554
167	0x3c099577	0.008397452
168	0x3c386310	0.011254087
169	0xbbc06839	-0.0058717993
170	0x3c4c04a1	0.0124522755
171	0xbcf21ef4	-0.029555775
172	0xbc2cdba9	-0.010550418
173	0xbcf96b43	-0.030446654
174	0x3ca9df91	0.020736488
175	0xbcd9daad	-0.02659353
176	0xbc766196	-0.015037915
177	0x3bd35599	0.006449413
178	0xbb9f9fc8	-0.0048713423
179	0x3d0a0762	0.033698447
180	0x3c53bce5	0.012923454
181	0x3c9016b9	0.01758896
182	0xbb9824e2	-0.0046430686
183	0xbc49fb4b	-0.012327979
184	0x3bc2bb97	0.0059427726
185	0x3ae46989	0.0017426471
186	0xbc6f93c5	-0.014622633
187	0x3c1e5d82	0.009665849
188	0x3c80ca58	0.015721485
189	0xbc73c9ec	-0.014879685
190	0x3bfbbfb1	0.0076827635
191	0xbb9bf6c6	-0.0047596423
192	0xb81a9ff6	-3.6865436e-05
193	0x3c1ca961	0.009561867
194	0xba782636	-0.0009466143
195	0xbbd486fc	-0.006485818
196	0xbc750937	-0.01495581
197	0x3ca64d54	0.020300545
198	0xbcd88ec4	-0.026435263
199	0x3c941dc1	0.018080594
200	0x3cd5359a	0.026026536
201	0xbc309034	-0.010776568
202	0xbc1042b8	-0.0088049695
203	0xbb573e0d	-0.0032843382
204	0x3afb8e42	0.0019192176
205	0xbcbf19fb	-0.023327818
206	0x3bce26f1	0.0062912633
207	0xbb6f6f61	-0.0036534893
208	0xbc8ce015	-0.017196694
209	0xbc24b6de	-0.010053365
210	0x3c2191ff	0.009861468
211	0x3c0e4128	0.008682527
212	0x3c3548f4	0.011064757
213	0xbc8a4029	-0.016876297
214	0x3bf2511e	0.007394924
215	0x3c2639a6	0.01014558
216	0xbc13e33c	-0.009026345
217	0xbc0cae9a	-0.00858655
218	0xbbdb7fc1	-0.006698579
219	0x3aef0ec1	0.001823865
220	0xbc05c85f	-0.008165448
221	0x3bb03090	0.005376883
222	0xbcb310cf	-0.0218586
223	0x3d0e4b82	0.03473998
224	0x3c2e8b10	0.010653272
225	0x3bcb83dd	0.0062107877
226	0x3a6bd3b5	0.00089960854
227	0xbc3a4d61	-0.011370988
228	0x3b925a2b	0.0044663153
229	0xbce9d46f	-0.028543679
230	0x3a9b0816	0.0011827971
231	0xbcec03e9	-0.028810458
232	0xbc884056	-0.01663224
233	0x3c81b9a8	0.015835598
234	0xbcae108f	-0.02124813
235	0x3bc52cb6	0.006017293
236	0xbafc0f85	-0.0019230699
237	0xbb8ffb5f	-0.0043939794
238	0x3ab82158	0.0014048023
239	0x3bd88163	0.006607221
240	0xbb94907c	-0.0045338254
241	0x3c99c5b7	0.018771036
242	0xb98be861	-0.00026685282
243	0xbb17bee9	-0.0023154563
244	0x3c29e5c3	0.010369721
245	0x3c623a53	0.013807851
246	0xbbd6592f	-0.006541393
247	0x3b2a17b4	0.002595407
248	0x3ca2225c	0.019791774
249	0x39954d4c	0.00028477085
250	0xbd068ad4	-0.03284724
251	0xbc4fca78	-0.01268255
252	0x3cdd2ce2	0.02699894
253	0xbbafd13e	-0.00536552
254	0x3c8a1b68	0.016858771
255	0x3be1dd83	0.0068928613

bn1.module.running_var f4 [256]
0	0x3f195809	0.59899956
1	0x3f195a05	0.59902984
2	0x3f1c28a4	0.6099951
3	0x3f19f753	0.6014301
4	0x3f18cc47	0.596867
5	0x3f1cd68e	0.61264884
6	0x3f1987bf	0.5997276
7	0x3f194756	0.59874475
8	0x3f1bf808	0.6092534
9	0x3f1b6afe	0.6071013
10	0x3f199a94	0.6000149
11	0x3f1a6fa9	0.6032663
12	0x3f1b06b5	0.6055711
13	0x3f1a1234	0.60184026
14	0x3f19934e	0.59990394
15	0x3f195a5c	0.599035
16	0x3f19160e	0.5979928
17	0x3f1aad83	0.6042101
18	0x3f1ab251	0.6042834
19	0x3f1a6e8f	0.6032495
20	0x3f19c5c6	0.60067403
21	0x3f1accc9	0.6046873
22	0x3f19a15e	0.6001185
23	0x3f199955	0.5999959
24	0x3f195c54	0.59906507
25	0x3f19cabb	0.6007497
26	0x3f1ad985	0.6048816
27	0x3f19c46e	0.6006535
28	0x3f1936f3	0.5984947
29	0x3f199b02	0.6000215
30	0x3f19611f	0.5991382
31	0x3f1df0a4	0.61695313
32	0x3f199592	0.5999385
33	0x3f1a248a	0.60212004
34	0x3f19470b	0.5987403
35	0x3f1c1346	0.6096691
36	0x3f18cdaf	0.5968885
37	0x3f1ba15d	0.60793096
38	0x3f1aad18	0.6042037
39	0x3f1bc55d	0.6084803
40	0x3f199587	0.59993786
41	0x3f1a1714	0.60191464
42	0x3f1a690f	0.60316557
43	0x3f19ddcf	0.6010408
44	0x3f194afa	0.5988003
45	0x3f1b01e4	0.6054976
46	0x3f1aa92c	0.60414386
47	0x3f19bbab	0.60051984
48	0x3f1b9100	0.6076813
49	0x3f1c0e30	0.6095915
50	0x3f19b7f5	0.6004632
51	0x3f19aed0	0.6003237
52	0x3f1a8478	0.6035838
53	0x3f1a715d	0.6032923
54	0x3f19f0be	0.6013297
55	0x3f1a2784	0.60216546
56	0x3f1b9492	0.60773575
57	0x3f1a6fb6	0.6032671
58	0x3f19d4a0	0.60090065
59	0x3f191001	0.59790045
60	0x3f1ace48	0.6047101
61	0x3f1a163c	0.60190177
62	0x3f1bb6df	0.60825914
63	0x3f19f45e	0.601385
64	0x3f190fda	0.5978981
65	0x3f1998f8	0.59999037
66	0x3f19fbb9	0.60149723
67	0x3f194e50	0.5988512
68	0x3f198049	0.5996137
69	0x3f19d34b	0.6008803
70	0x3f1a3b81	0.60247046
71	0x3f1ac877	0.60462135
72	0x3f194bd9	0.5988136
73	0x3f1c6d16	0.6110395
74	0x3f1b07c8	0.6055875
75	0x3f19fab1	0.6014815
76	0x3f1a87aa	0.60363257
77	0x3f1ad782	0.6048509
78	0x3f19f278	0.601356
79	0x3f195d4d	0.5990799
80	0x3f1abf65	0.60448295
81	0x3f1b1324	0.6057608
82	0x3f1b0029	0.6054712
83	0x3f1b36d5	0.6063054
84	0x3f1a7c19	0.6034561
85	0x3f1d03f9	0.61334187
86	0x3f1943b1	0.59868914
87	0x3f19bdfa	0.60055506
88	0x3f19ca3d	0.60074216
89	0x3f1be0e0	0.60890007
90	0x3f19c46d	0.60065347
91	0x3f198262	0.59964573
92	0x3f1a7bba	0.6034504
93	0x3f1982b2	0.5996505
94	0x3f1b03c2	0.6055261
95	0x3f1ac991	0.60463816
96	0x3f19e1fe	0.6011046
97	0x3f1926fd	0.59825116
98	0x3f194c83	0.5988237
99	0x3f191366	0.59795225
100	0x3f1929f0	0.59829617
101	0x3f1bb44b	0.6082198
102	0x3f197683	0.5994646
103	0x3f1a3489	0.6023641
104	0x3f1a3d24	0.60249543
105	0x3f191661	0.5979977
106	0x3f197afa	0.5995327
107	0x3f1a1a59	0.60196453
108	0x3f198a38	0.5997653
109	0x3f1b4808	0.60656786
110	0x3f199aa5	0.60001594
111	0x3f1aac7f	0.6041946
112	0x3f1ab803	0.6043703
113	0x3f196f8c	0.5993583
114	0x3f1946b0	0.59873486
115	0x3f1a9b9a	0.6039368
116	0x3f1b488c	0.6065757
117	0x3f1ccccf	0.61250013
118	0x3f194170	0.59865475
119	0x3f1b77b0	0.60729504
120	0x3f194dd0	0.5988436
121	0x3f193277	0.5984263
122	0x3f19a38b	0.6001517
123	0x3f1b146a	0.60578024
124	0x3f1a845f	0.6035823
125	0x3f1ad4e7	0.60481113
126	0x3f19bc84	0.60053277
127	0x3f1a0f6d	0.6017979
128	0x3f193f54	0.59862256
129	0x3f193367	0.5984406
130	0x3f1956d6	0.59898126
131	0x3f1a2871	0.6021796
132	0x3f1a2ded	0.6022633
133	0x3f1ca55a	0.61189806
134	0x3f1a56e4	0.60288835
135	0x3f19cdfc	0.6007993
136	0x3f19170f	0.5980081
137	0x3f192a52	0.598302
138	0x3f1af5e8	0.60531473
139	0x3f1a1d26	0.60200727
140	0x3f1ac5e8	0.6045823
141	0x3f1ad70f	0.60484403
142	0x3f1c0aa5	0.6095374
143	0x3f18cc83	0.5968706
144	0x3f1a80cf	0.60352796
145	0x3f1b5bbe	0.6068686
146	0x3f1ba348	0.6079602
147	0x3f1a369c	0.6023958
148	0x3f19fcdf	0.60151476
149	0x3f1a317f	0.60231775
150	0x3f1b04ea	0.60554373
151	0x3f1a0bbe	0.6017417
152	0x3f199d2f	0.6000547
153	0x3f1af49b	0.6052949
154	0x3f19d178	0.6008525
155	0x3f1a3ecd	0.60252076
156	0x3f19c6a0	0.600687
157	0x3f1a3e8e	0.602517
158	0x3f1a09dc	0.60171294
159	0x3f1a0c7a	0.6017529
160	0x3f197492	0.599435
161	0x3f194062	0.59863865
162	0x3f1a2c20	0.6022358
163	0x3f1c1bf8	0.60980177
164	0x3f1a9926	0.60389936
165	0x3f19c8bb	0.60071915
166	0x3f1af2c7	0.605267
167	0x3f1a9b09	0.60392815
168	0x3f1c0638	0.6094699
169	0x3f1b0867	0.60559696
170	0x3f1aeb44	0.60515237
171	0x3f1a5c35	0.60296947
172	0x3f19db1d	0.60099965
173	0x3f1a594b	0.602925
174	0x3f1b7715	0.6072858
175	0x3f1a53af	0.6028394
176	0x3f1a3f54	0.6025288
177	0x3f1a40cf	0.6025514
178	0x3f1a6bd8	0.60320807
179	0x3f1a2157	0.6020712
180	0x3f194c98	0.598825
181	0x3f1a26e8	0.60215616
182	0x3f19ae2e	0.600314
183	0x3f1ad6e8	0.6048417
184	0x3f1a6d9d	0.60323507
185	0x3f1ac2e7	0.6045365
186	0x3f19ca54	0.60074353
187	0x3f1b75ed	0.60726815
188	0x3f189e0f	0.5961618
189	0x3f198ff7	0.599853
190	0x3f19f204	0.6013491
191	0x3f1975cc	0.5994537
192	0x3f1ac0fc	0.6045072
193	0x3f1b25c4	0.606045
194	0x3f1a0223	0.6015951
195	0x3f195373	0.5989296
196	0x3f18f6d0	0.59751606
197	0x3f19109b	0.5979096
198	0x3f18ad11	0.5963908
199	0x3f197fb9	0.59960514
200	0x3f1ac35d	0.6045435
201	0x3f19fd75	0.6015237
202	0x3f1b0a03	0.6056215
203	0x3f1893dc	0.59600616
204	0x3f1a7736	0.6033815
205	0x3f19e8f7	0.601211
206	0x3f1a8bc0	0.6036949
207	0x3f1a49f2	0.6026908
208	0x3f1a3f16	0.6025251
209	0x3f1a5d30	0.6029844
210	0x3f19ecff	0.6012725
211	0x3f19a3fd	0.6001585
212	0x3f1a2338	0.6020999
213	0x3f1b1435	0.6057771
214	0x3f1ad5b8	0.6048236
215	0x3f191bfe	0.5980834
216	0x3f1929d9	0.5982948
217	0x3f1a730f	0.60331815
218	0x3f1acf5e	0.6047267
219	0x3f1972cf	0.5994081
220	0x3f19fdc2	0.6015283
221	0x3f19c523	0.6006643
222	0x3f1985e9	0.59969956
223	0x3f196d17	0.5993208
224	0x3f1ccb46	0.6124767
225	0x3f1c2b11	0.61003214
226	0x3f1a3149	0.60231453
227	0x3f1a0412	0.6016246
228	0x3f1a5364	0.60283494
229	0x3f19cb7b	0.6007611
230	0x3f1af650	0.60532093
231	0x3f1acd93	0.6046993
232	0x3f1a3004	0.60229516
233	0x3f19a8d1	0.6002322
234	0x3f199b4a	0.6000258
235	0x3f1941e6	0.5986618
236	0x3f1ae7f3	0.60510176
237	0x3f1a2167	0.6020722
238	0x3f198612	0.599702
239	0x3f1a7298	0.60331106
240	0x3f196fb8	0.59936094
241	0x3f1d1e63	0.6137449
242	0x3f1996c2	0.59995663
243	0x3f1aaac3	0.6041681
244	0x3f1b5822	0.60681355
245	0x3f1abe0b	0.6044623
246	0x3f1b1377	0.60576576
247	0x3f191d49	0.5981031
248	0x3f190324	0.5977042
249	0x3f19a518	0.6001754
250	0x3f1b6c21	0.60711867
251	0x3f199f90	0.600091
252	0x3f19b8e2	0.60047734
253	0x3f198918	0.59974813
254	0x3f19f4c9	0.6013914
255	0x3f1a58d6	0.602918

conv2.bias f4 [128]
0	0xb75560d1	-1.2718331e-05
1	0xb82dd188	-4.1441555e-05
2	0x37401350	1.1448588e-05
3	0xb8754818	-5.8479694e-05
4	0xb8b94453	-8.834214e-05
5	0x364c26ba	3.042091e-06
6	0x3899563a	7.3116695e-05
7	0xb82f7a70	-4.183728e-05
8	0x385a1c12	5.2001393e-05
9	0x38371467	4.36496e-05
10	0xb7b071ce	-2.103383e-05
11	0xb704b65a	-7.91027e-06
12	0xb6f102ca	-7.1826844e-06
13	0xb70a8c5c	-8.258121e-06
14	0xb7666d68	-1.3734541e-05
15	0x3785dd11	1.5957778e-05
16	0xb8900801	-6.867946e-05
17	0xb608ef64	-2.0404923e-06
18	0x37f54ee7	2.9243018e-05
19	0xb81d0beb	-3.7442816e-05
20	0xb7818f0c	-1.544461e-05
21	0x36dfd8a5	6.6711386e-06
22	0xb711ddf8	-8.694355e-06
23	0xb61d91b5	-2.3479636e-06
24	0x38699619	5.569132e-05
25	0x3666b987	3.4380662e-06
26	0xb786e8c6	-1.6082438e-05
27	0x35ecf61f	1.7655001e-06
28	0xb7929604	-1.7474413e-05
29	0xb8130548	-3.505245e-05
30	0x386791d9	5.5210523e-05
31	0x3689cd93	4.10685e-06
32	0xb6618a7c	-3.3608221e-06
33	0xb777a01b	-1.4759625e-05
34	0xb853514e	-5.038204e-05
35	0x374a38ab	1.2053332e-05
36	0x374ba289	1.2137586e-05
37	0xb7860a68	-1.597889e-05
38	0x38629929	5.402524e-05
39	0x36c3118d	5.813496e-06
40	0xb8a5344d	-7.877555e-05
41	0x377f8928	1.5231119e-05
42	0x3669a133	3.4813536e-06
43	0xb791f18d	-1.7397828e-05
44	0xb83f11b5	-4.555444e-05
45	0x3725dcab	9.886145e-06
46	0xb75fd906	-1.33423655e-05
47	0xb6b51d36	-5.397621e-06
48	0x3805bb80	3.1884294e-05
49	0x374c00a6	1.21594985e-05
50	0xb7a0f9ae	-1.9189752e-05
51	0xb7ddea82	-2.6454454e-05
52	0xb85cdf61	-5.2660125e-05
53	0xb5f2f82d	-1.8102634e-06
54	0x36cf3c02	6.1760666e-06
55	0x384c06f2	4.864386e-05
56	0xb78f54a0	-1.7086335e-05
57	0xb8616ab4	-5.3743555e-05
58	0xb747bf16	-1.1905815e-05
59	0xb80c065a	-3.3384516e-05
60	0x38ef60d5	0.000114144445
61	0x37118df2	8.675723e-06
62	0xb6af8362	-5.2307014e-06
63	0x3800efc0	3.0740863e-05
64	0x37071760	8.0520695e-06
65	0x38a0338d	7.6389966e-05
66	0xb879230a	-5.939886e-05
67	0xb885ecae	-6.386019e-05
68	0x38429968	4.6396075e-05
69	0xb7d7fb5f	-2.5747051e-05
70	0xb7f510eb	-2.9214154e-05
71	0xb7e881e5	-2.7717042e-05
72	0xb7953103	-1.7785007e-05
73	0xb82dc512	-4.142995e-05
74	0xb89165db	-6.933111e-05
75	0x38144cfa	3.535764e-05
76	0xb882ba14	-6.233543e-05
77	0xb81aa249	-3.68676e-05
78	0x381363f8	3.5140634e-05
79	0xb88fac30	-6.850844e-05
80	0x3850fcc9	4.982649e-05
81	0xb68889bf	-4.0691516e-06
82	0xb80fc581	-3.4277797e-05
83	0x3318edaf	3.560643e-08
84	0x37451616	1.1747257e-05
85	0x3789e90c	1.6440194e-05
86	0xb78d950b	-1.6877913e-05
87	0x3843b83b	4.66632e-05
88	0x3820010a	3.814794e-05
89	0x38241438	3.9119477e-05
90	0x3740e2ec	1.1496926e-05
91	0xb7670420	-1.3769633e-05
92	0x38073915	3.223967e-05
93	0xb723ed26	-9.7707725e-06
94	0xb637785e	-2.7339188e-06
95	0xb7c0bd0f	-2.297622e-05
96	0x3784c0df	1.5825439e-05
97	0x37a8b341	2.0110632e-05
98	0xb7f05625	-2.8650344e-05
99	0xb69ebe25	-4.7309027e-06
100	0xb62f0acd	-2.608332e-06
101	0xb6a7320b	-4.9828136e-06
102	0x37807ce6	1.531695e-05
103	0xb7a4ca55	-1.9644542e-05
104	0xb7994739	-1.8272187e-05
105	0xb80c48ff	-3.3446584e-05
106	0xb82154c2	-3.8464328e-05
107	0xb8395ea0	-4.4195564e-05
108	0x369af0ec	4.6176046e-06
109	0xb67e6235	-3.7906113e-06
110	0xb7bbed87	-2.2402744e-05
111	0x37c8cd88	2.3937566e-05
112	0xb85d57b9	-5.2772204e-05
113	0x37f71a9e	2.945709e-05
114	0x378c6af4	1.6739104e-05
115	0x34c8cca8	3.740181e-07
116	0xb82f3455	-4.177199e-05
117	0x382b44c7	4.083363e-05
118	0xb728db3b	-1.0064624e-05
119	0x378c7c89	1.6747292e-05
120	0x380d6fe8	3.372124e-05
121	0x37d98aec	2.5933106e-05
122	0xb8827a14	-6.221622e-05
123	0xb858f58e	-5.1727104e-05
124	0x3818b865	3.6411355e-05
125	0x37277ae4	9.982588e-06
126	0xb826d309	-3.9774026e-05
127	0x3772d419	1.4473707e-05
